bettensor/miner/models/nfl_wager_model.pt/model.safetensors (safetensors, 102988 bytes, 7 tensors)

fc1.bias f4 [128]
0	0xbde9beac	-0.11413321
1	0xbd85d7ab	-0.06535276
2	0xbd79def3	-0.061003637
3	0xbe0c555d	-0.13704439
4	0xbd88ffe8	-0.06689435
5	0x3c2843d5	0.010270079
6	0xbeaece40	-0.3414173
7	0xbe149f01	-0.1451378
8	0xbe29117a	-0.16510573
9	0xbe71387d	-0.23556705
10	0xbdf18f93	-0.11794963
11	0xbe03f431	-0.1288612
12	0xbd51a0f4	-0.051178887
13	0xbdae61c8	-0.08514744
14	0xbdf554ed	-0.11979089
15	0xbe035155	-0.12823994
16	0xbdfe84a8	-0.12427646
17	0xbd472db8	-0.048627585
18	0xbdfe4560	-0.12415576
19	0xbe04a0d5	-0.12951978
20	0xbd002f6a	-0.031295218
21	0xbd9fc569	-0.07801325
22	0xbd848e3a	-0.0647244
23	0xbce16592	-0.027514253
24	0xbbf27280	-0.0073989034
25	0xbe44d02a	-0.19220033
26	0xbddb7a59	-0.10716695
27	0xbe2ccb7d	-0.168745
28	0x3d2fada2	0.0428902
29	0xbe831591	-0.2560239
30	0xbd9a81c6	-0.075442836
31	0xbcc019b5	-0.023449758
32	0xbddd797d	-0.10814188
33	0xbe6ded30	-0.23235011
34	0xbdb656cc	-0.08903274
35	0x3b88eaf2	0.0041783983
36	0xbdfa79eb	-0.12230285
37	0x3c36081c	0.011110332
38	0xbe48e43c	-0.19618315
39	0xbdd63f16	-0.104612514
40	0xbe34b659	-0.17647685
41	0xbd1d06c2	-0.038336523
42	0xbd3531e1	-0.04423702
43	0xbdc2a5cb	-0.09504279
44	0xbd1365f3	-0.0359859
45	0xbe05904f	-0.1304333
46	0xbdad5ef8	-0.084653795
47	0xbd8dcb53	-0.06923547
48	0xbd633ff6	-0.05548092
49	0xbd791c3e	-0.06081795
50	0xbe1ee27a	-0.15516081
51	0xbe06cf2b	-0.13164966
52	0xbc1b96bc	-0.009496387
53	0xbdf46beb	-0.11934646
54	0xbdfa2be1	-0.122154005
55	0xbe134d88	-0.14385045
56	0xbdb0530a	-0.086095884
57	0xbe0019c9	-0.12509836
58	0xbe3a9681	-0.18221475
59	0xbdc03404	-0.09384921
60	0x3c63051e	0.0138562005
61	0xbc84f853	-0.016231691
62	0xbd72f2e9	-0.05931369
63	0xbd544a7b	-0.051828843
64	0xbd95df82	-0.07318021
65	0xbddc2fe3	-0.10751321
66	0xbe084723	-0.13308387
67	0xbd57e69c	-0.05271016
68	0xbd90a2b7	-0.070622854
69	0xbe4833a7	-0.19550954
70	0xbe01a543	-0.12660699
71	0xbe0286c7	-0.12746726
72	0xbda55fa1	-0.080748804
73	0xbe38352f	-0.17989038
74	0xbe449970	-0.19199157
75	0xbda307f8	-0.07960504
76	0xbd91be87	-0.07116418
77	0xbe07fff1	-0.13281228
78	0xbd41c6f9	-0.047308896
79	0xbdf2d083	-0.11856177
80	0xbe818050	-0.25293207
81	0xbde0e69a	-0.10981484
82	0xbda9a035	-0.0828251
83	0xbe33a3ed	-0.17543001
84	0xbe5fe630	-0.21865153
85	0xbd5f388a	-0.05449728
86	0xbd95343c	-0.072853535
87	0xbc88ebe3	-0.016714042
88	0xbd920f42	-0.071318164
89	0xbde15905	-0.11003307
90	0xbd80c32c	-0.06287226
91	0xbcfc753a	-0.030817617
92	0xbc1d44e2	-0.0095989425
93	0xbd8540af	-0.06506478
94	0xbe302b57	-0.17204033
95	0xbdbb0463	-0.09131696
96	0xbd24cb45	-0.040232915
97	0xbcffa9d8	-0.031208917
98	0xbe01674a	-0.12637058
99	0xbe65c53b	-0.22438519
100	0xbd285b8e	-0.04110294
101	0xbed04d06	-0.40683764
102	0xbe2664b9	-0.1624936
103	0x3be67962	0.007033513
104	0xbe16463b	-0.14675228
105	0xbd2c2e94	-0.042036608
106	0xbd93231a	-0.071844295
107	0xbe427ec8	-0.18993676
108	0xbe5bbdbc	-0.21459097
109	0xbda9c5c7	-0.08289676
110	0xbe5181e5	-0.20459707
111	0xbdcf57fa	-0.10124202
112	0xbd788c6a	-0.060680784
113	0xbddf70b7	-0.109101705
114	0xbdee5b5c	-0.11638519
115	0xbbe89f15	-0.007099042
116	0xbd8a0a21	-0.06740213
117	0xbe412522	-0.18861821
118	0xbdd67d69	-0.10473139
119	0xbd9c1fdc	-0.07623264
120	0xbe030e2a	-0.12798372
121	0xbd0ad5b9	-0.033895228
122	0xbda33dee	-0.079707965
123	0x3d823a95	0.0635883
124	0xbd850412	-0.06494917
125	0xbdce064f	-0.10059797
126	0xbe06ac1a	-0.13151589
127	0xbd89980e	-0.06718455

fc1.weight f4 [128, 118]
0	0x3d85c793	0.065322064
1	0xb9c9e57a	-0.0003850868
2	0xbcae6985	-0.02129055
3	0x3dbb3b6b	0.091421925
4	0x3d08d400	0.033405304
5	0xbce719f0	-0.02821061
6	0xbd7bc81c	-0.061470136
7	0x3dd908f3	0.1059741
8	0x3b57f9cd	0.003295529
9	0xbc4dc27b	-0.012558575
10	0x3ce4e281	0.027940037
11	0xbd03f5fe	-0.03221702
12	0xbd319d63	-0.043362986
13	0xbd46ff9f	-0.048583623
14	0xbcf3dc7f	-0.029768227
15	0xbc2d9664	-0.010594938
16	0xbcd21258	-0.025643513
17	0xbdf2bb76	-0.118521616
18	0x3cdeeaa6	0.027211498
19	0xbc9abc94	-0.01888875
20	0x3d385595	0.045003492
21	0x3d969d8e	0.0735427
22	0xbd52d4fb	-0.051472645
23	0xbe152d6d	-0.1456811
24	0xbd9bd279	-0.07608504
25	0x3d0028cf	0.031288918
26	0xbdea65f0	-0.11445224
27	0x3d132f8b	0.035934012
28	0xbdea94f0	-0.11454189
29	0x3da8ccd7	0.08242195
30	0xbd020dbd	-0.031751383
31	0x3c7c012f	0.015381142
32	0x3e07f3df	0.13276623
33	0xbcdb15ca	-0.026743788
34	0xbdcfca03	-0.101459526
35	0xbe43302d	-0.19061346
36	0x3dcab996	0.09898679
37	0x3df77faf	0.120849006
38	0xbc73fe64	-0.014892194
39	0x3ce96508	0.028490558
40	0x3d90decc	0.07073745
41	0x3d6fa8df	0.058510657
42	0xbb65f7de	-0.0035090367
43	0xbddfee4f	-0.10934126
44	0xbdcb144d	-0.099159814
45	0x3dbb6a6e	0.09151159
46	0x3a0dd3a7	0.0005410262
47	0xbc24d05a	-0.0100594405
48	0xbdc6f4bd	-0.09714649
49	0xbd4f3aa5	-0.050593037
50	0xbd6f43c0	-0.05841422
51	0x3df6ec02	0.12056734
52	0x3d228f04	0.03968717
53	0xbdee8742	-0.11646892
54	0xbd01de1c	-0.03170596
55	0xbd064482	-0.032780178
56	0x3b3e856d	0.0029071227
57	0x3ba3a5c7	0.0049941274
58	0x3e20a0ab	0.1568629
59	0xbd07c205	-0.033144016
60	0xbd71bbab	-0.059016865
61	0x3d1c90d3	0.038224053
62	0x3d73e9f9	0.059549306
63	0x3d929f99	0.07159347
64	0xbc9b1b1b	-0.018933823
65	0x3d84de95	0.06487767
66	0xbd67ccab	-0.05659167
67	0xbd25d245	-0.04048373
68	0xbc918985	-0.01776577
69	0xbd18708b	-0.037216704
70	0x3da4a566	0.0803936
71	0xbcb951c8	-0.022622004
72	0xbc705c79	-0.014670485
73	0xbd1b512b	-0.037919205
74	0xbafe0f56	-0.0019383233
75	0x3c3cdb5b	0.011526908
76	0xbc4df969	-0.012571671
77	0xbd55049f	-0.05200636
78	0x3dbd80de	0.09253095
79	0x3d1bb8a6	0.03801789
80	0xbc81532c	-0.01578673
81	0x3ce252d1	0.02762738
82	0xbd571f2f	-0.052519973
83	0xbe0cfa07	-0.13767253
84	0xbda707ec	-0.08155808
85	0x3b9cf6f3	0.004790181
86	0xbd649914	-0.05581005
87	0x3de203d8	0.110358894
88	0xbdf3b07c	-0.11898896
89	0x3d04efe0	0.032455325
90	0x3b6bc72a	0.0035976865
91	0xbd283061	-0.041061763
92	0xbcaacedb	-0.02085059
93	0x80f3fd6c	-2.2406936e-38
94	0x3bac05ac	0.0052496996
95	0xbdb97b7b	-0.09056755
96	0xbc3800aa	-0.011230627
97	0xbe44a2ba	-0.192027
98	0x3ca84712	0.020541701
99	0x3c1b597b	0.009481783
100	0xbcbb6c43	-0.022878772
101	0x3bbb3267	0.0057127955
102	0x3c261cca	0.0101387
103	0xbd183bb9	-0.03716633
104	0xbc722cc7	-0.014781184
105	0xbd907313	-0.07053199
106	0xbc93ebb7	-0.018056734
107	0xbd856c49	-0.065147944
108	0xbd2992ac	-0.041399643
109	0x3c9e29cd	0.019307042
110	0xbc35a416	-0.011086484
111	0xbcedeacd	-0.029042626
112	0xbd3fc4d7	-0.04681858
113	0x3c99d034	0.018776037
114	0x3db69c4d	0.08916531
115	0xbd5ecf5c	-0.054396972
116	0x3df4f429	0.11960632
117	0x3c10c8b0	0.00883691
118	0x3b077f0d	0.0020675093
119	0xbd1834a1	-0.037159566
120	0x3db41b6b	0.08794292
121	0x3c59b030	0.013286635
122	0xbd01facf	-0.03173333
123	0xbb30ab7b	-0.002695768
124	0x3d257cd0	0.040402234
125	0x3c457d2b	0.012053768
126	0x3d8b2324	0.06793812
127	0x3d76a0a2	0.060211785
128	0xbd133bee	-0.035945825
129	0xbc7cf9a3	-0.015440377
130	0xbc32c8e8	-0.010912158
131	0xbc833b7c	-0.016019575
132	0x3c3b4434	0.011429835
133	0xbd1d115e	-0.03834664
134	0xbc809f15	-0.015700856
135	0xbbfc38e0	-0.0076972097
136	0x3d56a662	0.05240477
137	0xbd04fd6e	-0.032468252
138	0x3d76fee2	0.06030167
139	0x3cb81407	0.022470487
140	0x3d95d019	0.07315082
141	0xbd93fd56	-0.07226054
142	0x3c40030f	0.011719479
143	0x3cc02792	0.023456369
144	0x3ce28ba4	0.027654476
145	0xbd825d30	-0.0636543
146	0x3aaedf92	0.0013341776
147	0xbcb482d7	-0.022035046
148	0xbd84f200	-0.0649147
149	0xbbf55859	-0.0074873385
150	0x3d2be175	0.04196306
151	0xbdd9c1be	-0.106326565
152	0x3d1f4fd1	0.03889448
153	0xbd47482d	-0.048652817
154	0x3b82d8b7	0.0039931196
155	0x3c8d9601	0.017283441
156	0x3b13a0ea	0.0022526332
157	0xbcecd34d	-0.02890935
158	0xbdec509d	-0.11538813
159	0x3c1c37ff	0.009534835
160	0x3d3fb728	0.04680553
161	0x3c82365b	0.01589506
162	0x3d5827ca	0.05277232
163	0x3d482294	0.0488611
164	0x3d1570e5	0.036484618
165	0x3d3559f7	0.04427525
166	0xbcdae39e	-0.026719864
167	0xbc592692	-0.013253825
168	0xbd4879bd	-0.048944224
169	0x3d1bdbe6	0.03805151
170	0x3ce7038e	0.028199937
171	0x3de2709d	0.110566355
172	0xbda64820	-0.081192255
173	0xbca0f0ad	-0.019646013
174	0x3d6da0ee	0.058014803
175	0x3becb765	0.007224011
176	0xbcc5429d	-0.024079615
177	0xbb89223f	-0.0041849907
178	0xbaab4099	-0.0013065516
179	0xbda39b4f	-0.07988607
180	0x3c81cc05	0.015844354
181	0xbd09e6c8	-0.033667356
182	0xbd5b1c9e	-0.05349409
183	0xbc7f4188	-0.015579589
184	0x3c761a90	0.015020981
185	0x3d77615e	0.06039559
186	0x3c483c6c	0.012221437
187	0xbdc6e5fc	-0.09711835
188	0x3e077356	0.13227591
189	0x3d721bcc	0.05910854
190	0x3bd73765	0.006567883
191	0x3ca1feca	0.019774813
192	0xbce21115	-0.027596036
193	0xbaec0009	-0.0018005382
194	0x3b45be58	0.0030173268
195	0xbd0004b4	-0.031254485
196	0x3d034a87	0.032053497
197	0x3e256f78	0.16155803
198	0xbd4e8b62	-0.050425895
199	0x3d011457	0.03151354
200	0x3d95f366	0.07321815
201	0xbddebd5b	-0.108759604
202	0x3c406543	0.011742893
203	0x3d580454	0.052738503
204	0xbdbf6439	-0.09345288
205	0x3cb8296a	0.022480685
206	0xba909b63	-0.0011032637
207	0xbccc32c1	-0.024926545
208	0xbc8572a3	-0.016290015
209	0xbd2fdcf1	-0.042935316
210	0xbc224f30	-0.009906575
211	0xbca5c34c	-0.020234726
212	0x3cd2bfad	0.025726164
213	0xbd8c3621	-0.06846262
214	0xbc3e4770	-0.011613712
215	0xbd44d654	-0.04805596
216	0x3d6af40e	0.057361655
217	0x3a845897	0.0010097203
218	0xbc8f6c40	-0.017507672
219	0xbd867c1c	-0.06566641
220	0xbcffe922	-0.031239096
221	0xbdba3c36	-0.090935156
222	0xbd71ca17	-0.05903062
223	0xbcf469d7	-0.029835625
224	0xbdb9ca16	-0.09071748
225	0x3c4f54bc	0.01265448
226	0x3e02123e	0.12702271
227	0xbb9fca6f	-0.004876427
228	0xbd2ad412	-0.041706152
229	0x3d6d9447	0.058002736
230	0x3e2a3916	0.16623339
231	0xbbdb6651	-0.0066955467
232	0x3db53219	0.08847446
233	0xbcb56830	-0.022144407
234	0xbd3ae6c7	-0.045630243
235	0xbd83403a	-0.064087346
236	0xbc73e56f	-0.014886244
237	0xbd053ab7	-0.032526698
238	0x3d61de31	0.05514354
239	0x3d1369da	0.03598962
240	0xbc34f875	-0.011045565
241	0x3cecd178	0.028908476
242	0xbdfd6b3e	-0.123739704
243	0x3d1a5e2e	0.037687473
244	0xbd34005c	-0.043945655
245	0xbd43179b	-0.047629934
246	0xbcd07c88	-0.025450006
247	0xbc876e7c	-0.016532175
248	0xbbb73cad	-0.00559195
249	0xbd304264	-0.043032065
250	0xbc8a7a71	-0.016904088
251	0x3be15484	0.00687653
252	0xbd27c883	-0.040962707
253	0xbde2782f	-0.110580795
254	0xbc2dae46	-0.010600632
255	0xbcdb3dbb	-0.026762834

fc2.bias f4 [64]
0	0xa8d964ca	-2.413555e-14
1	0xbad0328c	-0.0015884205
2	0x3b6e1e6a	0.0036334046
3	0x3afdefe5	0.0019373862
4	0x3c7c223c	0.0153890215
5	0x3b18aa67	0.0023294927
6	0x3bf4e174	0.007473165
7	0x3b3a73d7	0.0028450394
8	0x3c8f833a	0.017518628
9	0xbcb782ab	-0.022401175
10	0x99bf5dfa	-1.9786894e-23
11	0x955f03a2	-4.5037357e-26
12	0x3c47a17e	0.012184499
13	0x3c6cec7a	0.014460677
14	0x3dbe7a96	0.09300725
15	0x3cb5d433	0.022195911
16	0x90fd388e	-9.987804e-29
17	0x3b8e0ee4	0.004335271
18	0x3904b9ba	0.0001265769
19	0x3c99697c	0.018727057
20	0x3bc61e70	0.006046109
21	0x3bebc6ca	0.0071953284
22	0x8ee98909	-5.7570895e-30
23	0x3ca13d1f	0.019682465
24	0x3c14933c	0.009068307
25	0x3beede5c	0.007289691
26	0x3c5e543d	0.013569889
27	0x3b39fc6e	0.002837922
28	0x3dc852cc	0.09781417
29	0x940c6543	-7.088164e-27
30	0x3bcb733a	0.0062088044
31	0x3c78d0e6	0.015186524
32	0x3cae539a	0.021280099
33	0x3bb2a33a	0.005451587
34	0xbbe4587a	-0.006968555
35	0x3bd81e33	0.006595397
36	0xbb240985	-0.0025030088
37	0xbaf0951a	-0.0018354983
38	0x3dda4f05	0.10659603
39	0x3bbb7107	0.005720261
40	0x3ca087dd	0.019596035
41	0xa5aa9c28	-2.9596115e-16
42	0x3c26f864	0.010191057
43	0x3a25a862	0.00063193415
44	0xbba1d005	-0.004938128
45	0x3c587bde	0.013213126
46	0x3c8d59b9	0.017254697
47	0x3c552000	0.013008118
48	0xbbde789f	-0.0067892815
49	0x3c46f235	0.012142708
50	0x3c6d5112	0.014484661
51	0xa9149cf7	-3.2998747e-14
52	0x3a7cea49	0.00096479483
53	0x9e3fa089	-1.0144654e-20
54	0x3cdac55c	0.026705436
55	0xbb06fe06	-0.0020598187
56	0xb1460fb9	-2.882173e-09
57	0x3c21600c	0.0098495595
58	0x96814ae9	-2.088835e-25
59	0x3cef1f6c	0.029189788
60	0xbb14f136	-0.002272678
61	0x3cacc783	0.021091228
62	0x3c582966	0.013193464
63	0x3c172e7a	0.0092273895

fc2.weight f4 [64, 128]
0	0x80e037bc	-2.0591145e-38
1	0x01388258	3.388898e-38
2	0x003925a8	5.248132e-39
3	0x8080d8fd	-1.1832784e-38
4	0x815512e9	-3.913549e-38
5	0x8077a6da	-1.0988279e-38
6	0x803017d3	-4.41665e-39
7	0x80560891	-7.900926e-39
8	0x01b16ce0	6.517576e-38
9	0x80eae69c	-2.1572233e-38
10	0x80e369b4	-2.0884577e-38
11	0x00bfb93e	1.7607032e-38
12	0x0115a3de	2.7484547e-38
13	0x80992092	-1.4062515e-38
14	0x002b3cef	3.970785e-39
15	0x80d26bfb	-1.932419e-38
16	0x0144512c	3.6057752e-38
17	0x804e8fd7	-7.214769e-39
18	0x8195ce94	-5.503038e-38
19	0x8047acf9	-6.582371e-39
20	0x011308a8	2.7005846e-38
21	0x001991e5	2.348225e-39
22	0x0131eb62	3.2678645e-38
23	0x011adff0	2.8446e-38
24	0x8115a39c	-2.7484362e-38
25	0x01ad185d	6.3585123e-38
26	0x81231019	-2.994992e-38
27	0x81b5a297	-6.6722204e-38
28	0x80d5094b	-1.9564294e-38
29	0x01aa3e19	6.2537243e-38
30	0x803dd86d	-5.679604e-39
31	0x0068a731	9.610869e-39
32	0x0161a027	4.1440877e-38
33	0x80bc13f9	-1.7272238e-38
34	0x80b4f5d1	-1.6618572e-38
35	0x80d297d4	-1.933992e-38
36	0x807c6462	-1.1423612e-38
37	0x00309344	4.460933e-39
38	0x00dbe25d	2.0193178e-38
39	0x00f86fc4	2.2815297e-38
40	0x0144514f	3.605785e-38
41	0x8087f825	-1.248681e-38
42	0x811e33ba	-2.905713e-38
43	0x80a748e9	-1.5362683e-38
44	0x804092cd	-5.930134e-39
45	0x8031d7ac	-4.577308e-39
46	0x804bd042	-6.962371e-39
47	0x81704d62	-4.4136558e-38
48	0x01122ab0	2.6846592e-38
49	0x8039f806	-5.323597e-39
50	0x8164844a	-4.19719e-38
51	0x8046cea5	-6.502615e-39
52	0x01777c82	4.5456065e-38
53	0x015918b2	3.9874323e-38
54	0x810965d6	-2.523599e-38
55	0x809a45cb	-1.4167703e-38
56	0x814e3c1c	-3.787935e-38
57	0x0008929f	7.87282e-40
58	0x0028ff57	3.765019e-39
59	0x8145220f	-3.620762e-38
60	0x81086a1b	-2.5055382e-38
61	0x0121e2cc	2.9733749e-38
62	0x0033eb56	4.768033e-39
63	0x80d8bada	-1.9903497e-38
64	0x807e24e1	-1.1584502e-38
65	0x01794558	4.578383e-38
66	0x8121926e	-2.9676088e-38
67	0x80e96870	-2.1435136e-38
68	0x80df00ce	-2.0479604e-38
69	0x01096d44	2.524132e-38
70	0x0120dc0c	2.9545235e-38
71	0x0039b8cc	5.300916e-39
72	0x010d8596	2.5993453e-38
73	0x018a6a30	5.0845565e-38
74	0x005f65d4	8.760901e-39
75	0x01183e69	2.7962768e-38
76	0x01072d56	2.482811e-38
77	0x805e6017	-8.667007e-39
78	0x810810d2	-2.4991323e-38
79	0x006a95c1	9.788284e-39
80	0x0037a931	5.111647e-39
81	0x80c2c74c	-1.788758e-38
82	0x80a45222	-1.5090485e-38
83	0x80eb3992	-2.1601994e-38
84	0x00f9ecd8	2.2952002e-38
85	0x017373e0	4.4715187e-38
86	0x813dbf16	-3.4850915e-38
87	0x80f34f88	-2.2344556e-38
88	0x80db7f9d	-2.0157753e-38
89	0x81a1887b	-5.93379e-38
90	0x80080c88	-7.3918e-40
91	0x80459d01	-6.392972e-39
92	0x80422439	-6.074137e-39
93	0x8091041d	-1.3317623e-38
94	0x0138d9b8	3.3951668e-38
95	0x808b044e	-1.2766678e-38
96	0x0196476b	5.520378e-38
97	0x00f27381	2.2265625e-38
98	0x80c21f5f	-1.782734e-38
99	0x17dc9e51	1.4257131e-24
100	0x8057ec01	-8.07435e-39
101	0x81052c0b	-2.445984e-38
102	0x0133b332	3.3005674e-38
103	0x000b8fbc	1.061753e-39
104	0x01416ede	3.5528045e-38
105	0x80ce1199	-1.8924425e-38
106	0x000240f8	2.06977e-40
107	0x806f64c2	-1.0229885e-38
108	0x8171e9d2	-4.4432467e-38
109	0x803d65be	-5.638463e-39
110	0x80eda445	-2.1823941e-38
111	0x805a1f9e	-8.276537e-39
112	0x808c9821	-1.2911543e-38
113	0x0066343b	9.385957e-39
114	0x81016e0a	-2.3772507e-38
115	0x80af8f50	-1.6122623e-38
116	0x810479a4	-2.4331844e-38
117	0x0159f692	4.003351e-38
118	0x002ac6ea	3.928448e-39
119	0x80817a32	-1.1890614e-38
120	0x00bb5a1c	1.7205563e-38
121	0x81a32e33	-5.9943036e-38
122	0x80bdffac	-1.7448627e-38
123	0x816ff879	-4.4075638e-38
124	0x806c9002	-9.969894e-39
125	0x812a54f8	-3.128503e-38
126	0x0088597e	1.2521731e-38
127	0x8114db7c	-2.734078e-38
128	0xbc987b0a	-0.018613357
129	0x3d232d60	0.039838195
130	0x3c4185f1	0.011811719
131	0x3cf11258	0.029427692
132	0x3d0b3961	0.033990268
133	0x3dee8889	0.11647136
134	0xbd98654c	-0.07441196
135	0x3dd33ceb	0.103143536
136	0xbd3eee7a	-0.046614148
137	0xbc7d7897	-0.015470645
138	0xbbac09b8	-0.005250182
139	0x3e238451	0.15968443
140	0x3cc7ddcf	0.024397759
141	0x3db9fe9f	0.09081768
142	0x3d7e5b36	0.062098704
143	0x3daadebd	0.08343265
144	0xbbb6f5c9	-0.005583499
145	0xbb03b21e	-0.002009518
146	0x3d43ac96	0.047772013
147	0x3d733f48	0.05938652
148	0x3d4b81be	0.04968428
149	0x3d6698d6	0.0562981
150	0x3c9e3f6b	0.01931735
151	0xbd633d36	-0.055478297
152	0x3c5bfc3d	0.0134268375
153	0xbcf1cfe7	-0.02951808
154	0xbd3dc2d4	-0.04632838
155	0x3daf9dd8	0.08575028
156	0xbcb8943d	-0.022531623
157	0xbdcd4881	-0.10023595
158	0x3c53098a	0.012880692
159	0xbd42fc6d	-0.047604013
160	0x3daf06ab	0.08546194
161	0x3d06a040	0.03286767
162	0xbd8373e6	-0.0641859
163	0xbc8e5824	-0.017376013
164	0xbe066edd	-0.13128228
165	0xbc5eb9da	-0.013594115
166	0xbe822320	-0.25417423
167	0x3c90c773	0.01767323
168	0xbe189189	-0.14899267
169	0x3d572fe8	0.05253592
170	0x3b319ed0	0.0027102716
171	0x3da91279	0.082554765
172	0x3b91b3bb	0.0044464744
173	0x3d37b112	0.0448466
174	0x3d1c56ae	0.0381686
175	0x3d528da6	0.051404618
176	0x3dd3537e	0.10318659
177	0xbd18d232	-0.037309833
178	0x3d949ff4	0.07257071
179	0x3b873896	0.0041266186
180	0xbc1dc782	-0.009630086
181	0xbc401ae0	-0.0117251575
182	0x3d04fa20	0.0324651
183	0x3cdbeab1	0.026845308
184	0xbcb29126	-0.021797728
185	0x3d2f3d17	0.04278287
186	0xbd3ec9c3	-0.046579134
187	0xbcc306ea	-0.023807008
188	0x3c85e0b5	0.0163425
189	0x3d3f01bf	0.046632525
190	0xbd197a9d	-0.03747045
191	0xbd328a91	-0.04358918
192	0x3b2ae76c	0.002607788
193	0x3dbbc1c7	0.091678195
194	0x3d4b5cbf	0.049648996
195	0x3c68a2fe	0.014199017
196	0x3db05e8e	0.08611785
197	0xbcbac051	-0.022796782
198	0x3e00e784	0.12588316
199	0x3d536cdb	0.051617485
200	0x3d2d07bb	0.0422437
201	0xbde02d09	-0.1094609
202	0x3caf4112	0.021393333
203	0x3d2b80bf	0.04187083
204	0x3b8b4866	0.004250574
205	0xbcb27abf	-0.021787046
206	0x3ba820c9	0.0051308614
207	0xbd7dbfd2	-0.061950512
208	0xbe0f504d	-0.13995476
209	0xbafb0e30	-0.0019154008
210	0x3b0d515f	0.0021563394
211	0xbd96cc65	-0.07363204
212	0xbc63fba2	-0.013914974
213	0x3d009587	0.0313926
214	0x3d7d8192	0.061891146
215	0xbcee4beb	-0.029088935
216	0xbcb13003	-0.02162934
217	0xbbd08f74	-0.006364757
218	0x3bbb13ca	0.005709146
219	0x3d12c4ea	0.035832323
220	0xbcce34d7	-0.02517168
221	0x3d3c281f	0.0459367
222	0x3c8176a6	0.015803646
223	0x3d311208	0.043230087
224	0x3c75e087	0.015007145
225	0x3d0f2bf3	0.034954023
226	0x3d544df0	0.05183214
227	0x3b5c4b8e	0.003361437
228	0x3c8c1885	0.017101536
229	0xbdcbeb67	-0.09957009
230	0x3d2fcf66	0.0429224
231	0x3abe64cc	0.001452589
232	0x3d6fdb0c	0.05855851
233	0x3c02e846	0.007989949
234	0x3d62dba7	0.055385258
235	0x3d0b600d	0.034027148
236	0x3de7c978	0.11317724
237	0xbc4a77a5	-0.012357627
238	0x3bf6462f	0.0075156908
239	0xbc71fdf3	-0.014770019
240	0x3c054fc4	0.008136693
241	0x3dae2e76	0.085049555
242	0x3d8ec0b7	0.06970351
243	0x3cc9cc85	0.024633655
244	0x3d2b05d6	0.041753612
245	0xbd8d507f	-0.06900119
246	0xbc5a2d3c	-0.013316449
247	0x3d725103	0.05915929
248	0x3df9c622	0.12195994
249	0x3c371733	0.011174965
250	0x3dcb655c	0.09931442
251	0x3ca09966	0.019604396
252	0x3db08769	0.086195774
253	0x3d83b6b2	0.06431331
254	0x3d97eadf	0.07417845
255	0xbd4b3061	-0.049606685

fc3.bias f4 [32]
0	0x3ce087a2	0.027408425
1	0xa194388b	-1.0043837e-18
2	0xb659ea53	-3.2471914e-06
3	0x3c8e2a8e	0.017354276
4	0x3d8bc5e2	0.068248525
5	0x3c1c67a3	0.009546193
6	0xb8e1b698	-0.00010762847
7	0x3d09f700	0.033682823
8	0x3c4e683b	0.012598093
9	0x3cb67d0f	0.02227643
10	0x3cbc2d20	0.022970736
11	0xaf91c1ba	-2.6512997e-10
12	0x3c80c4ca	0.015718836
13	0xb7c339c3	-2.3272709e-05
14	0x3bd02235	0.006351734
15	0x3c2fa0b2	0.010719465
16	0x3c4e413d	0.012588796
17	0xbaa120e0	-0.0012293123
18	0xadd71927	-2.445384e-11
19	0xb8a51596	-7.871834e-05
20	0x3ba10a1d	0.0049145357
21	0xa233d6f6	-2.4372823e-18
22	0x3cbee816	0.023304027
23	0x3c5c78d5	0.013456543
24	0x3dbce850	0.092239976
25	0x3a87750b	0.0010334564
26	0xbb45a76c	-0.0030159606
27	0xa87a4cb2	-1.38944185e-14
28	0x3da8791c	0.08226225
29	0x3dbd1628	0.092327416
30	0xba4b0a1c	-0.0007745342
31	0xad1a986b	-8.78773e-12

fc3.weight f4 [32, 64]
0	0x81ad93c8	-6.376222e-38
1	0x3da742bf	0.08167028
2	0x3dc633ed	0.09677873
3	0x3dab8dfb	0.0837669
4	0x3d98b65e	0.07456659
5	0x3dd5d422	0.10440852
6	0x3dc200b2	0.09472789
7	0x3d992564	0.07477835
8	0x3e1a4d62	0.15068582
9	0x397b0039	0.00023937308
10	0x012537c6	3.034573e-38
11	0x80487301	-6.653411e-39
12	0x3df5581a	0.11979695
13	0x3d9177d9	0.07102937
14	0xbddee7db	-0.10884067
15	0x3ddae105	0.1068745
16	0x00e42338	2.0951127e-38
17	0x3d8fbc7d	0.07018373
18	0x3de9670f	0.1139661
19	0x3de3b2b6	0.11118071
20	0x3dbf0435	0.09326974
21	0x3d93eac0	0.072225094
22	0x0c9c7cc9	2.4110708e-31
23	0x3d96c4b3	0.07361736
24	0x3de12127	0.109926514
25	0x3dda51db	0.10660144
26	0x3d9a67d7	0.07539337
27	0x3c953596	0.018214028
28	0xbe0318d5	-0.12802441
29	0x8114090a	-2.7189792e-38
30	0x3dcfa92d	0.101396896
31	0x3daf3a46	0.08556037
32	0x3dae247c	0.085030526
33	0x3ddc5e7b	0.10760208
34	0xab417f63	-6.874416e-13
35	0x3d0add80	0.033902645
36	0x34707829	2.2395456e-07
37	0x3dbe8532	0.09302749
38	0xbdc0590a	-0.09391983
39	0x3d4627bd	0.04837774
40	0x3d4f71d0	0.05064565
41	0xa20f9fb2	-1.9464656e-18
42	0x3d9e66a6	0.077344224
43	0x3dd8f90d	0.10594378
44	0x3de4af84	0.111662894
45	0x3d8e4f7d	0.06948755
46	0x3d3fc85f	0.04682195
47	0x3dc7607b	0.09735199
48	0x3d1a6d6e	0.037702017
49	0x3dc42d19	0.09578914
50	0x3e027bdc	0.12742561
51	0x017a3248	4.5953823e-38
52	0x3d929ff4	0.07159415
53	0x810aa962	-2.5468123e-38
54	0x3d1a51cc	0.037675664
55	0x3dca662c	0.09882769
56	0x30760a9f	8.950937e-10
57	0x3d8c6355	0.068548836
58	0x00dd96c0	2.0349724e-38
59	0x3d996eb0	0.07491815
60	0x3ded01ac	0.115725845
61	0x3dc45cbd	0.09588001
62	0x3d9bfc05	0.07616428
63	0x3d1151aa	0.03547827
64	0x817aedfa	-4.6088488e-38
65	0x80c2c047	-1.7885062e-38
66	0x01946781	5.4515135e-38
67	0x8190a722	-5.313707e-38
68	0x814b24fc	-3.7311746e-38
69	0x81573982	-3.9530523e-38
70	0x807668b1	-1.0874145e-38
71	0x00acbbed	1.586312e-38
72	0x00d99e3e	1.9985069e-38
73	0x0186f4c8	4.957507e-38
74	0x01158f9f	2.747002e-38
75	0x8178665f	-4.5623854e-38
76	0x00cae328	1.8632259e-38
77	0x00f1c613	2.220341e-38
78	0x00a65ccc	1.5277982e-38
79	0x80e56395	-2.1066052e-38
80	0x01668656	4.234071e-38
81	0x01abd0fb	6.311535e-38
82	0x0090e05a	1.3304794e-38
83	0x80cd0b38	-1.8830301e-38
84	0x01156cdc	2.744508e-38
85	0x80e88f48	-2.1357235e-38
86	0x01ad5adf	6.3680557e-38
87	0x81038601	-2.4157043e-38
88	0x0117d66c	2.788816e-38
89	0x00aedbb6	1.6058194e-38
90	0x80e178a9	-2.0706271e-38
91	0x00a4114e	1.5067229e-38
92	0x0153dc6f	3.8912733e-38
93	0x8013612f	-1.779737e-39
94	0x803faa43	-5.846715e-39
95	0x012d7bc6	3.1863885e-38
96	0x81745ac2	-4.4880838e-38
97	0x00687208	9.591798e-39
98	0x004b03ae	6.888982e-39
99	0x00fa0cc6	2.2963456e-38
100	0x01235496	2.999906e-38
101	0x813b52d1	-3.4405893e-38
102	0x0066a1d2	9.425271e-39
103	0x8123ebb0	-3.010747e-38
104	0x80c4f8ca	-1.8089006e-38
105	0x81312879	-3.2538803e-38
106	0x80b7a0c4	-1.6863568e-38
107	0x8099e7e8	-1.4134023e-38
108	0x00a22ceb	1.4893464e-38
109	0x8155d2e5	-3.927323e-38
110	0x01b49a75	6.634319e-38
111	0x00c4b115	1.8063282e-38
112	0x00c6f853	1.827251e-38
113	0x00dd6ed5	2.0335404e-38
114	0x809fff1c	-1.469336e-38
115	0x00f98260	2.2913808e-38
116	0x8152affc	-3.869717e-38
117	0x804d7d77	-7.116342e-39
118	0x8066df1a	-9.447254e-39
119	0x01821ecc	4.779865e-38
120	0x8131f3e2	-3.2684743e-38
121	0x8110219b	-2.6472734e-38
122	0x01b585c7	6.668086e-38
123	0x01953a34	5.4817473e-38
124	0x807fadba	-1.172543e-38
125	0x013c345c	3.4567713e-38
126	0x807342c6	-1.0585036e-38
127	0x010576bd	2.4513433e-38
128	0x809e85d1	-1.4558013e-38
129	0x80581b1e	-8.091251e-39
130	0x81b0bf76	-6.492692e-38
131	0x80f67db7	-2.263663e-38
132	0x00b19847	1.630951e-38
133	0x00029b86	2.39462e-40
134	0x01765016	4.5240523e-38
135	0x051111e4	6.821153e-36
136	0x01006976	2.3585552e-38
137	0x01b391b2	6.596328e-38
138	0x0105e41a	2.4591897e-38
139	0x801a3493	-2.406583e-39
140	0x055a1471	1.0254065e-35
141	0x8025a767	-3.457966e-39
142	0x01a53f95	6.0702663e-38
143	0x814f1328	-3.803364e-38
144	0x019b93f0	5.715029e-38
145	0x0158b705	3.9804244e-38
146	0x0119cbf3	2.8247988e-38
147	0x0069912d	9.694806e-39
148	0x00b2ab8e	1.640826e-38
149	0x81aaa30c	-6.26821e-38
150	0x813df7d8	-3.4891637e-38
151	0x8114664a	-2.7256696e-38
152	0x806ff684	-1.0282173e-38
153	0x8133d8b0	-3.3032573e-38
154	0x8b1ae273	-2.9829683e-32
155	0x81862927	-4.9282877e-38
156	0x810d0248	-2.5899247e-38
157	0x006d5403	1.0040207e-38
158	0x00390d5b	5.239414e-39
159	0x815b935c	-4.0329672e-38
160	0x80f63453	-2.2610302e-38
161	0x817f434f	-4.6884395e-38
162	0x00654490	9.299981e-39
163	0x012e2f19	3.1992544e-38
164	0x1b47bce7	1.6521932e-22
165	0x8543db53	-9.2091394e-36
166	0x80e4e269	-2.1019714e-38
167	0x817a791a	-4.6004634e-38
168	0x21dc7cd1	1.4940818e-18
169	0x0108b8b6	2.5111779e-38
170	0x1576aabc	4.981399e-26
171	0x011406eb	2.718827e-38
172	0x803d44f0	-5.626695e-39
173	0x26c66ba5	1.3768187e-15
174	0x853eca41	-8.970905e-36
175	0x8076b288	-1.0900633e-38
176	0x005ba3a7	8.415738e-39
177	0x811c02f6	-2.86548e-38
178	0x8462d68c	-2.6664687e-36
179	0x80d0c661	-1.9172948e-38
180	0x95784b60	-5.0142662e-26
181	0x005e29f9	8.647594e-39
182	0x0066c39e	9.437395e-39
183	0x004f706f	7.295338e-39
184	0x01078e35	2.4897613e-38
185	0x00bb9bb6	1.7229096e-38
186	0x811b1f0d	-2.8491282e-38
187	0x04b9f0d1	4.3714446e-36
188	0x0171ae5d	4.438981e-38
189	0x017b5069	4.615911e-38
190	0x810e8ba9	-2.6181482e-38
191	0x00001c52	1.016e-41
192	0x81320642	-3.2697926e-38
193	0x3db4432a	0.08801873
194	0x3d9c623e	0.07635926
195	0x3dd35656	0.10319202
196	0x3d385656	0.04500421
197	0x3e2021a1	0.15637828
198	0x3e1a4e34	0.15068895
199	0x3dcd170b	0.10014161
200	0x3e4d71d2	0.2006295
201	0xbbbc036a	-0.0057377117
202	0x80db3347	-2.0130369e-38
203	0x00ca7a67	1.859468e-38
204	0x3e1533f1	0.14570595
205	0x3dcee4d6	0.10102241
206	0xbdd1539f	-0.102210276
207	0x3e060f73	0.13091831
208	0x0099b4ec	1.4115733e-38
209	0x3d6bd3c5	0.057575006
210	0x3e189c17	0.14903294
211	0x3e037e5d	0.12841173
212	0x3e0e1a7f	0.13877295
213	0x3d08fc5b	0.03344379
214	0x0dc3eec9	1.2075288e-30
215	0x3d9dc7a1	0.07704092
216	0x3e0eca82	0.13944438
217	0x3dbacf80	0.09121609
218	0x3d43ac14	0.04777153
219	0x3d55e99c	0.05222474
220	0xbe0915a4	-0.13387161
221	0x80047751	-4.10145e-40
222	0x3df3bcaf	0.11901223
223	0x3db1ca49	0.08681161
224	0x3de72ff5	0.11288444
225	0x3e200c72	0.15629748
226	0x2e94248d	6.7367535e-11
227	0x3d1ef1ae	0.038804702
228	0x33b5da27	8.468151e-08
229	0x3e03eb7f	0.12882803
230	0xbde024a0	-0.10944486
231	0x3dadac87	0.084801726
232	0x3d5070e5	0.050888915
233	0x23accae7	1.873421e-17
234	0x3dae9cb4	0.085259825
235	0x3d37a3b0	0.04483384
236	0x3e1f857e	0.15578267
237	0x3db11253	0.08646073
238	0x3db2a947	0.08723693
239	0x3df11232	0.117710486
240	0x3d286014	0.041107252
241	0x3d848ba6	0.06471948
242	0x3e2a732f	0.16645502
243	0x812a300a	-3.1258535e-38
244	0x3da82b51	0.08211387
245	0x815ff22b	-4.1132378e-38
246	0x3dbed894	0.09318653
247	0x3d9848d1	0.074357636
248	0xb144e436	-2.8651477e-09
249	0x3d5ee760	0.054419875
250	0x008eb97e	1.3107183e-38
251	0x3da77a7e	0.081776604
252	0x3e24658c	0.16054362
253	0x3e044232	0.12915877
254	0x3dbb126f	0.09134375
255	0x3d6c32e6	0.057665728

fc4.weight f4 [1, 32]
0	0xbe98598b	-0.29755816
1	0x01550cf2	3.913121e-38
2	0x201b87c1	1.3173928e-19
3	0xbebbc59f	-0.3667421
4	0x3e92f892	0.2870527
5	0xbebe56a4	-0.37175477
6	0xba1811f8	-0.00058010174
7	0xbeb4cbc7	-0.3531172
8	0xbeb54009	-0.35400417
9	0xbebd6c2f	-0.369966
10	0xbec7d2a3	-0.3902789
11	0x06270d5e	3.141903e-35
12	0xbecd1f5c	-0.40062988
13	0x2b42e21d	6.923644e-13
14	0xbea5cf93	-0.3238493
15	0xbebd11a7	-0.3692753
16	0xbec0f8c1	-0.37689784
17	0x3759f674	1.299159e-05
18	0x19ab2168	1.7694478e-23
19	0x32d8c998	2.5237384e-08
20	0xbea5d8ef	-0.3239207
21	0x012aed58	3.1394354e-38
22	0xbea5ff64	-0.3242141
23	0xbec239f6	-0.37934846
24	0x3e9856ea	0.2975381
25	0xbeaeaa36	-0.34114236
26	0xbeb21a57	-0.3478572
27	0x01082b10	2.501015e-38
28	0x3e9d0e0a	0.30674773
29	0x3e9aa332	0.30202633
30	0x34e39923	4.2393467e-07
31	0x2e387d1b	4.1947872e-11
